Compose(
    RandomHorizontalFlip(p=0.5)
    ColorJitter(brightness=[0.0, 3.0], contrast=None, saturation=None, hue=None)
    ToTensor()
    Normalize(mean=(0.5, 0.5, 0.5), std=(0.5, 0.5, 0.5))
)
ConvNet(
  (layers): Sequential(
    (0): Conv2d(3, 128, kernel_size=(3, 3), stride=(1, 1), padding=(1, 1))
    (1): BatchNorm2d(128, eps=1e-05, momentum=0.1, affine=True, track_running_stats=True)
    (2): MaxPool2d(kernel_size=2, stride=2, padding=0, dilation=1, ceil_mode=False)
    (3): ReLU()
    (4): Conv2d(128, 512, kernel_size=(3, 3), stride=(1, 1), padding=(1, 1))
    (5): BatchNorm2d(512, eps=1e-05, momentum=0.1, affine=True, track_running_stats=True)
    (6): MaxPool2d(kernel_size=2, stride=2, padding=0, dilation=1, ceil_mode=False)
    (7): ReLU()
    (8): Conv2d(512, 512, kernel_size=(3, 3), stride=(1, 1), padding=(1, 1))
    (9): BatchNorm2d(512, eps=1e-05, momentum=0.1, affine=True, track_running_stats=True)
    (10): MaxPool2d(kernel_size=2, stride=2, padding=0, dilation=1, ceil_mode=False)
    (11): ReLU()
    (12): Conv2d(512, 512, kernel_size=(3, 3), stride=(1, 1), padding=(1, 1))
    (13): BatchNorm2d(512, eps=1e-05, momentum=0.1, affine=True, track_running_stats=True)
    (14): MaxPool2d(kernel_size=2, stride=2, padding=0, dilation=1, ceil_mode=False)
    (15): ReLU()
    (16): Conv2d(512, 512, kernel_size=(3, 3), stride=(1, 1), padding=(1, 1))
    (17): BatchNorm2d(512, eps=1e-05, momentum=0.1, affine=True, track_running_stats=True)
    (18): MaxPool2d(kernel_size=2, stride=2, padding=0, dilation=1, ceil_mode=False)
    (19): ReLU()
    (20): Flatten(start_dim=1, end_dim=-1)
    (21): Linear(in_features=512, out_features=10, bias=True)
  )
)
Epoch [1/20], Step [100/245], Loss: 1.7717
Epoch [1/20], Step [200/245], Loss: 1.3673
Train accuracy is: 36.85306122448979 %
Validataion accuracy is: 43.0 %
New best validation accuracy: 43.0 %
Epoch [2/20], Step [100/245], Loss: 1.3325
Epoch [2/20], Step [200/245], Loss: 1.2772
Train accuracy is: 53.351020408163265 %
Validataion accuracy is: 49.8 %
…
