# Q1a with early stopping
ConvNet(
  (layers): Sequential(
    (0): Conv2d(3, 128, kernel_size=(3, 3), stride=(1, 1), padding=(1, 1))
    (1): MaxPool2d(kernel_size=2, stride=2, padding=0, dilation=1, ceil_mode=False)
    (2): ReLU()
    (3): Conv2d(128, 512, kernel_size=(3, 3), stride=(1, 1), padding=(1, 1))
    (4): MaxPool2d(kernel_size=2, stride=2, padding=0, dilation=1, ceil_mode=False)
    (5): ReLU()
    (6): Conv2d(512, 512, kernel_size=(3, 3), stride=(1, 1), padding=(1, 1))
    (7): MaxPool2d(kernel_size=2, stride=2, padding=0, dilation=1, ceil_mode=False)
    (8): ReLU()
    (9): Conv2d(512, 512, kernel_size=(3, 3), stride=(1, 1), padding=(1, 1))
    (10): MaxPool2d(kernel_size=2, stride=2, padding=0, dilation=1, ceil_mode=False)
    (11): ReLU()
    (12): Conv2d(512, 512, kernel_size=(3, 3), stride=(1, 1), padding=(1, 1))
    (13): MaxPool2d(kernel_size=2, stride=2, padding=0, dilation=1, ceil_mode=False)
    (14): ReLU()
    (15): Flatten(start_dim=1, end_dim=-1)
    (16): Linear(in_features=512, out_features=10, bias=True)
  )
)
Epoch [1/50], Step [100/245], Loss: 1.7196
Epoch [1/50], Step [200/245], Loss: 1.5297
Train accuracy is: 32.73265306122449 %
Validataion accuracy is: 54.6 %
New best validation accuracy: 54.6 %
Epoch [2/50], Step [100/245], Loss: 1.1325
Epoch [2/50], Step [200/245], Loss: 1.0367
Train accuracy is: 56.410204081632656 %
Validataion accuracy is: 64.8 %
…
Train accuracy is: 99.98979591836735 %
Validataion accuracy is: 80.3 %
Epoch [48/50], Step [100/245], Loss: 0.0174
Epoch [48/50], Step [200/245], Loss: 0.0244
Train accuracy is: 99.97551020408163 %
Validataion accuracy is: 79.3 %
Epoch [49/50], Step [100/245], Loss: 0.0143
Epoch [49/50], Step [200/245], Loss: 0.0190
Train accuracy is: 99.97551020408163 %
Validataion accuracy is: 80.5 %
Epoch [50/50], Step [100/245], Loss: 0.0148
Epoch [50/50], Step [200/245], Loss: 0.0169
Train accuracy is: 99.98775510204082 %
Validataion accuracy is: 79.8 %


# Q2a with early stopping

ConvNet(
  (layers): Sequential(
    (0): Conv2d(3, 128, kernel_size=(3, 3), stride=(1, 1), padding=(1, 1))
    (1): BatchNorm2d(128, eps=1e-05, momentum=0.1, affine=True, track_running_stats=True)
    (2): MaxPool2d(kernel_size=2, stride=2, padding=0, dilation=1, ceil_mode=False)
    (3): ReLU()
    (4): Conv2d(128, 512, kernel_size=(3, 3), stride=(1, 1), padding=(1, 1))
    (5): BatchNorm2d(512, eps=1e-05, momentum=0.1, affine=True, track_running_stats=True)
    (6): MaxPool2d(kernel_size=2, stride=2, padding=0, dilation=1, ceil_mode=False)
    (7): ReLU()
    (8): Conv2d(512, 512, kernel_size=(3, 3), stride=(1, 1), padding=(1, 1))
    (9): BatchNorm2d(512, eps=1e-05, momentum=0.1, affine=True, track_running_stats=True)
    (10): MaxPool2d(kernel_size=2, stride=2, padding=0, dilation=1, ceil_mode=False)
    (11): ReLU()
    (12): Conv2d(512, 512, kernel_size=(3, 3), stride=(1, 1), padding=(1, 1))
    (13): BatchNorm2d(512, eps=1e-05, momentum=0.1, affine=True, track_running_stats=True)
    (14): MaxPool2d(kernel_size=2, stride=2, padding=0, dilation=1, ceil_mode=False)
    (15): ReLU()
    (16): Conv2d(512, 512, kernel_size=(3, 3), stride=(1, 1), padding=(1, 1))
    (17): BatchNorm2d(512, eps=1e-05, momentum=0.1, affine=True, track_running_stats=True)
    (18): MaxPool2d(kernel_size=2, stride=2, padding=0, dilation=1, ceil_mode=False)
    (19): ReLU()
    (20): Flatten(start_dim=1, end_dim=-1)
    (21): Linear(in_features=512, out_features=10, bias=True)
  )
)
Epoch [1/50], Step [100/245], Loss: 1.3861
Epoch [1/50], Step [200/245], Loss: 1.1270
Train accuracy is: 49.114285714285714 %
Validataion accuracy is: 59.9 %
New best validation accuracy: 59.9 %
Epoch [2/50], Step [100/245], Loss: 0.8759
Epoch [2/50], Step [200/245], Loss: 0.9770
Train accuracy is: 66.44897959183673 %
Validataion accuracy is: 61.3 %
…
